tests/nn/layers/gruLayer/model_mnist_gruNN_028h_01l.onnx (onnx, 52698 bytes, 5 tensors)

fc.weight f4 [10, 784]
0	0x3df5c33d	0.12000129
1	0xbe682fae	-0.22674438
2	0xbdbb1a5f	-0.09135889
3	0xbe20b4e0	-0.15693998
4	0xbe0e6962	-0.13907388
5	0x3e408238	0.18799675
6	0xbccd3723	-0.025050705
7	0xbe39a6a4	-0.18129975
8	0xbe82473e	-0.25444978
9	0x3e3e9d5c	0.18614715
10	0x3e14d145	0.14532955
11	0x3e30cc83	0.17265515
12	0xbdd74e9a	-0.10513039
13	0xbe6608ca	-0.2246429
14	0xbe53b296	-0.20673594
15	0xbe679062	-0.22613671
16	0xbe5d86ab	-0.21633403
17	0xbdb6e9f5	-0.089313425
18	0xbe332c55	-0.1749738
19	0x3daefc26	0.08544187
20	0x3e094421	0.13404895
21	0xbd79ca0a	-0.060983695
22	0x3e63b3c1	0.2223654
23	0xbe226394	-0.15858299
24	0x3e605da3	0.2191072
25	0x3e142446	0.14466962
26	0xbdd25c9f	-0.10271572
27	0x3e958d95	0.2920958
28	0x3dc9f347	0.098608546
29	0xbe443a80	-0.19162941
30	0xbe24fa97	-0.16111217
31	0xbe448c35	-0.1919411
32	0x3d932bff	0.07186126
33	0x3e441a29	0.19150604
34	0xbcca8109	-0.024719732
35	0xbe54011a	-0.20703545
36	0xbe86684d	-0.2625145
37	0x3e1d08fb	0.15335457
38	0x3e42ae52	0.1901181
39	0x3e549870	0.20761275
40	0xbcb36a0f	-0.021901159
41	0xbe277849	-0.16354479
42	0xbe7c6b7f	-0.24650382
43	0xbe862836	-0.26202554
44	0xbe57dcc6	-0.21080312
45	0xbdd6cd85	-0.104884185
46	0xbe6a03a0	-0.22852945
47	0x3d8253fa	0.063636735
48	0x3e00ca01	0.12577058
49	0xbd9e58e4	-0.07731798
50	0x3e7bb971	0.24582459
51	0xbe17e465	-0.1483322
52	0x3e91076e	0.2832598
53	0x3dc5a036	0.096496984
54	0xbdbc552d	-0.091959335
55	0x3ea7d82f	0.32782122
56	0x3e0dce85	0.13848312
57	0xbd80274a	-0.06257494
58	0xbde5d570	-0.112223506
59	0xbd92690e	-0.07148944
60	0x3e15cb58	0.1462835
61	0x3e08a22c	0.13343114
62	0xbde82a68	-0.11336213
63	0x3caefa6e	0.021359649
64	0xbd98cc96	-0.07460897
65	0x3e0a2f4a	0.13494602
66	0x3d258ea7	0.040419247
67	0x3e6ec125	0.23315866
68	0x3d911077	0.070832185
69	0xbe2dbcc6	-0.16966543
70	0xbe528fa3	-0.20562606
71	0xbe2bab5f	-0.16764592
72	0x3d2001ac	0.039064094
73	0xbe1e7e28	-0.15477812
74	0xbe70c959	-0.23514308
75	0x3d519e75	0.051176507
76	0x3d331adb	0.043726783
77	0xbd9dc172	-0.077029124
78	0x3e507f30	0.20361018
79	0xbcb83f14	-0.022491015
80	0x3eaecad6	0.34139127
81	0xbdfdf003	-0.12399294
82	0xbbb6c82a	-0.0055780606
83	0x3e749f15	0.2388881
84	0x3e00093c	0.12503523
85	0xbda67da3	-0.08129432
86	0x3da52b06	0.08064847
87	0xbe13d777	-0.14437662
88	0xbe30d54e	-0.1726887
89	0x3e04ccb5	0.12968715
90	0x3e60a516	0.21937975
91	0xbdee7ada	-0.11644526
92	0x3e133c59	0.1437849
93	0x3dcf36a4	0.10117844
94	0xbd8011ef	-0.062534206
95	0x3e65978f	0.22421096
96	0xbe19c298	-0.15015638
97	0xbe1c8906	-0.15286645
98	0xbdbf9a7f	-0.0935564
99	0x3cad8cc8	0.021185294
100	0x3e4065ce	0.18788835
101	0xbd365d11	-0.04452235
102	0x3d95ee60	0.07320857
103	0xbc9f165c	-0.019419841
104	0xbd5be81d	-0.053688157
105	0xbd88a0c8	-0.066712916
106	0x3e33bb09	0.17551817
107	0xbde83670	-0.11338508
108	0x3e24db5f	0.16099308
109	0xbcf2a0d9	-0.029617714
110	0x3e340e35	0.17583545
111	0x3e0a45e9	0.13503231
112	0x3e5802ae	0.21094772
113	0x3d67b029	0.056564484
114	0x3dccf1eb	0.1000708
115	0xbd8abd81	-0.06774426
116	0xbe5db3bd	-0.21650596
117	0x3daecd93	0.08535304
118	0x3c1a69f6	0.009424677
119	0x3e587c0c	0.2114107
120	0x3e704a9a	0.23465958
121	0x3ccbe5f1	0.024889918
122	0x3c6dc8f3	0.014513242
123	0x3e622755	0.22085316
124	0x3d69b92c	0.05706136
125	0x3d8cbf3f	0.06872415
126	0xbde8ebb0	-0.11373079
127	0xbe2c8ccf	-0.16850589
128	0x3d3ffbfa	0.046871163
129	0xbc0fd51e	-0.008778838
130	0xbd2d12fb	-0.04225443
131	0xbbbf41e8	-0.005836714
132	0xbde24cf6	-0.110498354
133	0x3d9751c6	0.07388644
134	0x3daf8c83	0.08571722
135	0x3da21cb5	0.07915632
136	0x3e155132	0.14581755
137	0x3db3ee50	0.08785689
138	0x3e4e57c2	0.20150664
139	0xbe156611	-0.14589716
140	0x3e7c4dc7	0.24639045
141	0x3e093ec3	0.13402848
142	0x3e2f2376	0.17103371
143	0xbda2c6d9	-0.079480834
144	0xbe354bec	-0.17704743
145	0xbd985f3a	-0.07440038
146	0x3dc79df6	0.097469255
147	0x3d0e13d1	0.034686867
148	0x3e415c95	0.18882973
149	0x3d0a5b76	0.03377863
150	0xbe8eb7ac	-0.27874506
151	0x3ddf198b	0.10893544
152	0x3d286a93	0.041117262
153	0xbcda192c	-0.026623331
154	0xbdb8073c	-0.08985755
155	0xbcdf8cc9	-0.027288811
156	0x3c8f5e1d	0.017500931
157	0x3e019c3a	0.12657252
158	0x3c7abfe5	0.01530454
159	0x3cf09a91	0.029370578
160	0x3ca07198	0.019585416
161	0x3dccbc6d	0.09996877
162	0x3cd9e7eb	0.026599845
163	0x3e4e1fb3	0.2012928
164	0x3e3a3354	0.18183643
165	0x3dc6d0e9	0.09707815
166	0x3d9e46e7	0.07728367
167	0xbbd178fd	-0.0063925968
168	0x3e4dbcfe	0.20091626
169	0x3d9a92b2	0.07547511
170	0x3defed8f	0.117152326
171	0x3db9ba74	0.09068766
172	0xbe981699	-0.2970474
173	0xbd6a7628	-0.05724159
174	0x3e095071	0.13409592
175	0x3d3dac57	0.046306934
176	0x3d63ac0d	0.055584002
177	0xbbfbe178	-0.00768679
178	0xbe47452b	-0.19459979
179	0x3eac836f	0.33694026
180	0xbd867d5e	-0.06566881
181	0xbd06adcb	-0.032880586
182	0x3c96ba82	0.01839948
183	0x3e0425ff	0.1290512
184	0xbe122ac2	-0.14274123
185	0x3cca0d4d	0.024664545
186	0x3e1224f6	0.14271912
187	0xbcbd1682	-0.023082022
188	0x3da01428	0.078163445
189	0xbbe86078	-0.007091578
190	0x3dce5eb8	0.1007666
191	0x3df5d152	0.12002815
192	0xbc6fab8f	-0.014628305
193	0x3dce7223	0.100803636
194	0x3e4e750b	0.20161836
195	0x3c91b023	0.017784184
196	0x3da08451	0.07837737
197	0x3ba53f22	0.0050429264
198	0xbd804721	-0.06263567
199	0x3dfb9242	0.12283756
200	0xbe4ba035	-0.19885333
201	0xbd1af35f	-0.037829753
202	0x3d045d9e	0.032315843
203	0x3d6e1592	0.05812604
204	0xbd377d0d	-0.044796992
205	0xbda1eb76	-0.07906239
206	0xbd74703f	-0.05967736
207	0x3d7b5890	0.061363757
208	0xbd02b93e	-0.031914942
209	0x3df6135b	0.120154105
210	0x3d8b5529	0.068033524
211	0x3bd6e1b4	0.0065576676
212	0xbdf43910	-0.11924946
213	0xbdf8ce34	-0.12148705
214	0x3e04ed90	0.12981248
215	0xbd4d4fd9	-0.050124977
216	0xbd9b77fd	-0.07591245
217	0x3e05e0e8	0.13074076
218	0xbdcf8316	-0.101324245
219	0x3bc0e04f	0.0058861147
220	0xbddea93b	-0.10872122
221	0x3e3ae8e1	0.18252899
222	0x3dcda08b	0.10040387
223	0x3cc2f70d	0.023799444
224	0x3e567b22	0.20945409
225	0xbcb12003	-0.02162171
226	0xbe99fe11	-0.3007665
227	0xbc82895a	-0.015934635
228	0x3b0a4f83	0.0021104522
229	0x3e62d541	0.22151662
230	0x3de1e54d	0.11030064
231	0x3d6e3ec8	0.05816534
232	0xbd26ce5a	-0.040724136
233	0xbd1c33c2	-0.038135298
234	0xbdce3efb	-0.10070606
235	0x3d9b2779	0.07575888
236	0xbd1dfea7	-0.038572934
237	0x3c17cea5	0.0092655765
238	0xbc93d81f	-0.01804739
239	0xbe4247c2	-0.18972686
240	0xbe556283	-0.2083836
241	0xbdb1e637	-0.08686488
242	0xbda314b3	-0.079629324
243	0x3d78e2d5	0.0607632
244	0xbdb8248d	-0.089913465
245	0x3d9c7e6a	0.07641299
246	0x3d50ff0c	0.05102448
247	0xbd997ba8	-0.07494289
248	0xbe3eba30	-0.18625712
249	0x3e9bae95	0.30406633
250	0x3c17dea5	0.009269391
251	0x3d83cc89	0.06435496
252	0x3e5ce701	0.21572496
253	0xbd4634c0	-0.04839015
254	0xbe849cc0	-0.2590084
255	0xbe781813	-0.24227934

fc.bias f4 [10]
0	0xbe446e89	-0.19182791
1	0x3c83fb6e	0.016111102
2	0x3e3ec467	0.18629609
3	0x3dd8a94b	0.10579165
4	0xbe327cb4	-0.17430383
5	0x3dcc1d70	0.09966552
6	0xbd906ecf	-0.07052385
7	0x3d2483b6	0.04016467
8	0xbd389689	-0.045065437
9	0xbc9a64a9	-0.018846827

onnx::GRU_108 f4 [1, 84, 28]
0	0xbd90858f	-0.07056724
1	0x3dddff3e	0.10839699
2	0x3c050835	0.0081196325
3	0xbd18c39f	-0.037295934
4	0xbe3e000d	-0.18554707
5	0xbec9ba31	-0.39399865
6	0x3dec9b73	0.11553087
7	0xbc1e8911	-0.009676234
8	0x3e64470a	0.22292724
9	0x3e239f92	0.1597884
10	0x3e57f8a1	0.21090938
11	0x3e95678f	0.2918057
12	0x3e8abc51	0.270968
13	0x3e1cf559	0.15327968
14	0x3efa3dfa	0.4887541
15	0x3e97b625	0.29631153
16	0x3d9d97d9	0.07694978
17	0x3dc1c997	0.09462278
18	0xbd40ecd6	-0.047100864
19	0xbd96d4c7	-0.07364803
20	0xbec346a7	-0.3813984
21	0xbf39ac95	-0.72528964
22	0xbf8319c0	-1.0242233
23	0xbf80a417	-1.0050076
24	0xbfa0e686	-1.257035
25	0xbf8c2328	-1.0948229
26	0xbe44f8b4	-0.19235498
27	0x3dd454d4	0.10367742
28	0x3dfb0e7b	0.12258621
29	0x3e89a343	0.2688237
30	0x3bf8c6ba	0.0075920494
31	0x3e64d16d	0.22345515
32	0xbe31d547	-0.17366515
33	0xbdb8a7bb	-0.09016367
34	0x3e357cae	0.17723343
35	0x3e3dccc5	0.18535145
36	0x3e9925d5	0.29911676
37	0x3d91701e	0.07101463
38	0x3d6430a2	0.055710442
39	0xbea30ea4	-0.31847107
40	0xbf270a59	-0.65250164
41	0xbf6b48ee	-0.91908157
42	0xbf596672	-0.84921944
43	0xbee0e446	-0.4392416
44	0xbea7ce16	-0.3277442
45	0xbe1be7b7	-0.15225111
46	0xbe8a90e6	-0.27063674
47	0xbeade98d	-0.33967248
48	0xbf483217	-0.7820143
49	0xbed89a70	-0.42305326
50	0xbe4f3493	-0.20234899
51	0xbeaaaea1	-0.33336356
52	0xbd8840c0	-0.06652975
53	0xbe92a7b4	-0.28643572
54	0xbee15177	-0.44007465
55	0xbe9ee5e3	-0.31034765
56	0xbde1c5cb	-0.11024054
57	0x3e694e36	0.22783741
58	0x3ee409b3	0.4453865
59	0x3eb3c8c5	0.35114112
60	0x3f5969ab	0.8492686
61	0x3e0cd121	0.13751651
62	0x3f0407f0	0.5157461
63	0x3f0fdabb	0.5619313
64	0x3ee47bf5	0.44625822
65	0x3d086a1c	0.03330432
66	0x3dcee5cb	0.10102423
67	0x3df35df9	0.11883158
68	0x3c2e0ed9	0.010623657
69	0x3ed16234	0.40895236
70	0x3e0a41a7	0.13501607
71	0x3e8d9f15	0.27660432
72	0x3f484f41	0.7824593
73	0x3f4a4766	0.79015195
74	0x3f5a63f7	0.85308784
75	0x3f6324c0	0.8872795
76	0x3f47b447	0.78009456
77	0x3f64d5af	0.89388555
78	0x3f4cfd4d	0.80074006
79	0x3ea5a85b	0.32355008
80	0x3f31d9b0	0.6947279
81	0x3e6f80a0	0.2338891
82	0x3e917c29	0.2841504
83	0x3e48b299	0.1959938
84	0x3eb68729	0.35649994
85	0xbd64d27f	-0.055864807
86	0xbee9451d	-0.45560542
87	0x3e3aa60f	0.18227409
88	0x3ed43273	0.4144474
89	0x3e73c3dd	0.23805185
90	0x3e914242	0.28370863
91	0x3e46d3f9	0.19416799
92	0x3e97eac8	0.2967131
93	0x3dbb11ef	0.0913428
94	0x3e97ee04	0.2967378
95	0x3c5d417d	0.013504383
96	0xbe4e8c30	-0.20170665
97	0xbf28d544	-0.6595042
98	0xbee49b57	-0.44649765
99	0xbe6d82bb	-0.23194401
100	0x3ea23581	0.31681445
101	0x3eb11237	0.3458421
102	0x3e323814	0.17404205
103	0x3e57d60a	0.21077743
104	0x3eadbbce	0.33932346
105	0x3e09e67e	0.13466832
106	0x3e0930d0	0.13397527
107	0x3e241498	0.16023481
108	0x3e23b1c9	0.15985788
109	0x3cc117b4	0.023570873
110	0x3f13f3f7	0.57794136
111	0x3d22012c	0.0395519
112	0xbd647abb	-0.055781107
113	0x3c816e1f	0.01579958
114	0x3e887240	0.26649666
115	0x3cb43dd3	0.022002136
116	0xbe28cc31	-0.16484143
117	0xbe9fa38f	-0.31179473
118	0xbd844038	-0.06457561
119	0xbda5b734	-0.08091584
120	0x3dcab09e	0.09896968
121	0x3dc1ecca	0.09468992
122	0x3e1d6198	0.1536926
123	0x3e65d76f	0.22445463
124	0xbe647e41	-0.22313787
125	0xbe66c352	-0.22535446
126	0xbf12bb04	-0.57316613
127	0xbf63257a	-0.8872906
128	0xbeb5d12e	-0.35511154
129	0xbe6a6e8c	-0.22893733
130	0x3e840460	0.25784588
131	0x3ed227df	0.41046044
132	0x3f165b4d	0.58733064
133	0x3efacaab	0.48982748
134	0x3ebbd05b	0.366824
135	0x3ee94fa4	0.45568573
136	0x3e827690	0.2548108
137	0xbc876ad4	-0.016530432
138	0x3f184a40	0.59488297
139	0x3e30ff28	0.17284834
140	0xbe9fb83e	-0.31195253
141	0xbe0a0eab	-0.13482158
142	0x3f223ab6	0.63370836
143	0x3d26cffb	0.04072569
144	0xbdd9e2dd	-0.10638974
145	0x3ca956b6	0.02067123
146	0x3b278b63	0.0025565259
147	0xbed3abab	-0.4134191
148	0xbf2752b7	-0.6536059
149	0xbf3845ef	-0.7198171
150	0xbf0e9c18	-0.5570693
151	0xbee25c1f	-0.44210908
152	0xbf67b82e	-0.9051541
153	0xbf475a64	-0.778723
154	0xbfa16eef	-1.2611979
155	0xbf6e9929	-0.93202454
156	0xbf1e232b	-0.6177241
157	0xbe58a180	-0.21155357
158	0xbf267cbe	-0.6503409
159	0xbf5abfff	-0.8544921
160	0xbf05201e	-0.5200213
161	0xbf35e26b	-0.7104861
162	0xbe84d7d0	-0.25945902
163	0xbef1ae3e	-0.4720325
164	0xbe1558f5	-0.14584716
165	0x3ece6f8a	0.40319473
166	0x3e4ce4d5	0.20009167
167	0xbe9fc9ff	-0.31208798
168	0xbeca556c	-0.39518297
169	0x3d2cd0aa	0.042191185
170	0x3f14518d	0.57936937
171	0x3dcbc3bc	0.09949443
172	0xbe6795b1	-0.22615696
173	0xbef6f32f	-0.4823241
174	0xbe63ac64	-0.2223373
175	0xbb524e77	-0.0032090226
176	0x3d0692a3	0.032854687
177	0x3d23787d	0.03990983
178	0xbd09aec9	-0.033613954
179	0xbec5cbcc	-0.38632047
180	0xbecc4a41	-0.399004
181	0xbef8f6f8	-0.48625922
182	0xbed25d0a	-0.41086608
183	0xbdeb6c79	-0.11495299
184	0xbd37d2c6	-0.044878744
185	0xbe13cb2a	-0.1443297
186	0x3e418397	0.18897854
187	0x3ed75bb2	0.42062145
188	0x3d8d3a9c	0.068959445
189	0x3e5f55fc	0.21810144
190	0xbd5c0e7b	-0.053724747
191	0xbc8d286c	-0.017231189
192	0xbe3ae613	-0.18251829
193	0x3ef2e86f	0.47442958
194	0x3ebf4e94	0.37364638
195	0xbeaec429	-0.34134033
196	0x3de3cb55	0.11122767
197	0x3c99a7a8	0.018756703
198	0x3e9efe89	0.3105357
199	0xbe443cfb	-0.19163887
200	0xbf5150ae	-0.8176373
201	0xbf1b4060	-0.60645103
202	0xbf1c9102	-0.61158764
203	0xbf47521d	-0.7785967
204	0xbf18492c	-0.5948665
205	0xbeecc9f7	-0.46247837
206	0xbf60a5d4	-0.87753034
207	0xbf0d445f	-0.5518245
208	0xbf1e77b6	-0.61901414
209	0xbebf4ce2	-0.37363344
210	0xbe965b59	-0.29366568
211	0x3d80827f	0.0627489
212	0xbd87cf0d	-0.06631289
213	0xbe9c1521	-0.3048487
214	0xbe6bcf8d	-0.23028393
215	0x3dd65404	0.104652435
216	0xbe59d743	-0.21273522
217	0xbc84006b	-0.01611348
218	0xbd13b2fa	-0.036059357
219	0xbe8e818b	-0.27833208
220	0xbf097299	-0.5369049
221	0x3e8361f9	0.25660685
222	0x3f35d15e	0.71022594
223	0x3e372993	0.17886953
224	0xbee48357	-0.44631454
225	0xbe8b389e	-0.27191633
226	0xbf1a831b	-0.603563
227	0x3e255e7b	0.16149323
228	0x3e7a12ab	0.24421184
229	0x3e1dd79a	0.15414277
230	0x3e0210e9	0.12701763
231	0xbd4681cd	-0.04846363
232	0xbe6fff64	-0.23437268
233	0xbe5b44be	-0.21412942
234	0xbb878f21	-0.0041369353
235	0x3deb7552	0.114969864
236	0x3d8895cc	0.066691965
237	0x3e9a2ae6	0.30110854
238	0x3e9471bb	0.2899302
239	0x3ef3112b	0.47474036
240	0x3f20d879	0.6283031
241	0x3efdee60	0.49595928
242	0x3de44ba9	0.111472435
243	0x3d96ccf8	0.073633134
244	0x3d3df084	0.04637195
245	0xbd9c7491	-0.07639421
246	0xbde68868	-0.11256486
247	0x3e5cbeec	0.21557206
248	0xbdc1432e	-0.09436642
249	0xbf1b1993	-0.605859
250	0xbf20b838	-0.62781096
251	0xbe8a2d13	-0.26987514
252	0xbe979cda	-0.29611856
253	0x3e8545c9	0.26029804
254	0xbe589492	-0.21150425
255	0x3e4d0224	0.20020348

onnx::GRU_109 f4 [1, 84, 28]
0	0xbeed3815	-0.4633185
1	0xbd22ce44	-0.03974749
2	0x3ee76333	0.4519287
3	0xbb822ee9	-0.0039728773
4	0x3ea24123	0.3169032
5	0x3e850434	0.2597977
6	0xbe352509	-0.17689909
7	0x3dbf40b1	0.09338511
8	0x3ea2b669	0.31779793
9	0xbe2581f2	-0.16162851
10	0x3e502a2d	0.20328589
11	0xbf27c93a	-0.6554142
12	0xbd925713	-0.07145514
13	0xbe9e7673	-0.30949745
14	0x3e675e44	0.22594553
15	0xbf53ba27	-0.8270592
16	0x3ed57994	0.4169432
17	0xbf2afa33	-0.66788024
18	0x3ebb5027	0.3658459
19	0xbe907173	-0.28211555
20	0xbbbdd168	-0.0057927854
21	0xbdf1e6a1	-0.11811567
22	0x3e0956a7	0.13411961
23	0xbebda53a	-0.3704012
24	0xbf237c93	-0.6386196
25	0xbe47409a	-0.19458237
26	0x3beba042	0.007190735
27	0x3eb0480e	0.34429973
28	0xbe94c246	-0.2905447
29	0xbdb99958	-0.09062451
30	0x3f50c019	0.8154312
31	0x3c9c07b9	0.019046651
32	0xbe406b61	-0.18790962
33	0x3d1186df	0.035529014
34	0x3e617ac4	0.22019488
35	0xbf0249db	-0.50893945
36	0x3d8ca338	0.06867069
37	0x3f11f55c	0.57015014
38	0xbccd12c4	-0.025033362
39	0xbe9f452b	-0.31107458
40	0x3ec9c589	0.3940852
41	0xbe526595	-0.20546563
42	0x3ea796d3	0.32732257
43	0x3f3a643e	0.7280921
44	0xbd5ced9c	-0.05393754
45	0x3f3c605d	0.7358454
46	0xbdc2fc20	-0.09520745
47	0xbd943398	-0.07236403
48	0xbd42f632	-0.04759807
49	0xbe777762	-0.24166635
50	0xbe1427f5	-0.14468367
51	0x3f43e924	0.7652762
52	0xbebd3ccb	-0.36960444
53	0x3e964247	0.2934744
54	0xbdc5909b	-0.09646722
55	0xbbb98e03	-0.005662681
56	0x3f5da0a0	0.8657322
57	0xbf18338d	-0.5945366
58	0x3effd48d	0.4996685
59	0xbe06ab7c	-0.13151354
60	0xbf21f3ce	-0.6326264
61	0xbea90bcd	-0.33016816
62	0xbf15b83c	-0.58484244
63	0x3ea7f406	0.32803363
64	0xbef01082	-0.46887594
65	0x3d71feac	0.059080765
66	0xbd40f487	-0.0471082
67	0x3e41f411	0.1894076
68	0xbec85dd3	-0.39134082
69	0xbe826779	-0.25469568
70	0x3ea5bfbe	0.3237285
71	0x3c81f4a7	0.01586373
72	0xbf0562bf	-0.521038
73	0x3f0a6265	0.5405639
74	0x3e742357	0.23841606
75	0x3ecd70e7	0.401252
76	0xbf0450e3	-0.51685923
77	0xbea92ea7	-0.33043405
78	0xbeaa0b2a	-0.33211643
79	0x3dc0a19b	0.09405824
80	0xbc7126b3	-0.014718699
81	0x3f19fe58	0.6015372
82	0x3efd8000	0.4951172
83	0xbf030c65	-0.5119079
84	0x3f86dc0e	1.0535905
85	0xbf64e71a	-0.89415133
86	0xbe704924	-0.23465401
87	0xbfa395be	-1.2780073
88	0xbd0cb07a	-0.03434799
89	0x3dae771d	0.08518813
90	0x3ca2eaa4	0.019887276
91	0xbeb8f783	-0.36126336
92	0x3f086d3f	0.53291696
93	0x3e28eb78	0.16496074
94	0x3f12db78	0.5736613
95	0x3ea8163a	0.32829458
96	0x3ea322d7	0.31862518
97	0xbf0fe28a	-0.56205046
98	0xbeaab2d6	-0.33339566
99	0xbf1239b7	-0.57119316
100	0xbf49ef25	-0.7888053
101	0x3f4411a6	0.7658943
102	0xbf40b832	-0.7528106
103	0x3f493aaa	0.7860514
104	0x3dca307c	0.09872529
105	0xbb3fa631	-0.0029243345
106	0xbdf64c1c	-0.120262355
107	0xbecb281f	-0.39679047
108	0xbe52dcc7	-0.20592032
109	0x3f83cdd5	1.029719
110	0x3e876d30	0.2645049
111	0xbec99720	-0.39373112
112	0x3daaf6fb	0.08347889
113	0xbc08d31f	-0.008351116
114	0x3e11eaf6	0.14249787
115	0xbe9fcb4f	-0.312098
116	0xbf30467f	-0.6885757
117	0x3f1c7f0d	0.61131364
118	0xbf100f7d	-0.56273633
119	0xbccd8674	-0.025088526
120	0x3edf9024	0.43664658
121	0x3f08d325	0.5344718
122	0x3f81f84b	1.0153898
123	0x3e41acb9	0.18913545
124	0x3e1c5602	0.15267184
125	0xbe88f3f5	-0.26748624
126	0x3f1a1504	0.6018832
127	0x3ec62612	0.3870092
128	0x3dc21be9	0.0947798
129	0xbd30230f	-0.043002184
130	0x3f31525b	0.6926629
131	0xbf3dc757	-0.74132293
132	0xbed486d2	-0.4150911
133	0xbe4ba7aa	-0.19888178
134	0x3d8da94b	0.06917056
135	0xbeb37f8f	-0.35058257
136	0xbf1a3e32	-0.6025115
137	0xbe442e49	-0.19158281
138	0xbebb8007	-0.36621115
139	0xbf4ad96c	-0.7923801
140	0xbf67d854	-0.90564466
141	0xbe86fa1d	-0.26362696
142	0x3f91141d	1.1334263
143	0xbcc0a107	-0.023514284
144	0xbf2df506	-0.67952
145	0xbf0126a7	-0.50449604
146	0x3d36392f	0.04448813
147	0x3d9ad2b0	0.07559717
148	0x3ed92ae9	0.4241555
149	0x3ede1c7e	0.43381113
150	0xbf2b8754	-0.6700337
151	0xbebdb287	-0.37050268
152	0xbd0981ed	-0.033571173
153	0xbf1ef348	-0.6208997
154	0x3eb6c1bc	0.35694683
155	0x3f43fcf8	0.76557875
156	0xbf3e1a55	-0.7425893
157	0x3f32c909	0.69838005
158	0x3d9c8407	0.0764237
159	0x3d8262c6	0.06366496
160	0xbe2b4303	-0.16724782
161	0xbf1dac05	-0.61590606
162	0xbf0f5490	-0.5598841
163	0x3e91366f	0.28361842
164	0x3d9204ac	0.07129797
165	0x3ef76a36	0.4832322
166	0xbef07be6	-0.46969527
167	0xbee3059f	-0.44340226
168	0x3f612891	0.87952524
169	0xbf071e2f	-0.5278043
170	0xbf71feba	-0.94529307
171	0xbea5a658	-0.32353473
172	0x3ced7d74	0.028990485
173	0xbe219d74	-0.1578272
174	0x3f415989	0.75527245
175	0xbcadf04a	-0.021232743
176	0x3e13a74e	0.1441929
177	0xbf2155ad	-0.63021356
178	0xbe5e4aad	-0.21708174
179	0x3f70e8a7	0.94105
180	0xbf7ee7d5	-0.995725
181	0xbeae3d76	-0.34031266
182	0xbd6aa3fa	-0.057285286
183	0xbee17708	-0.44036126
184	0xbe250888	-0.16116536
185	0xbf352a60	-0.70767784
186	0x3f195fe4	0.5991194
187	0xbca6501a	-0.020301867
188	0xbdab7091	-0.0837108
189	0x3b9d2cba	0.0047965916
190	0x3eecb58a	0.46232253
191	0xbef02265	-0.4690124
192	0x3dbb6af1	0.09151257
193	0x3e3752fb	0.17902748
194	0x3f1f4738	0.62218046
195	0x3f4aba6a	0.79190695
196	0xbe80c66c	-0.25151384
197	0xbed8031c	-0.42189872
198	0x3e771144	0.2412768
199	0xbea7e390	-0.32790804
200	0xbe4251f7	-0.1897658
201	0x3f1f0616	0.6211866
202	0x3f25d9f9	0.64785725
203	0xbf34460d	-0.7041939
204	0xbe020681	-0.12697794
205	0x3f307b69	0.6893831
206	0x3eff8159	0.49903372
207	0x3e6c0e5e	0.23052356
208	0x3f0c24c4	0.547436
209	0xbec6d403	-0.38833627
210	0xbeeed72a	-0.46648532
211	0xbe760862	-0.24026635
212	0x3f2314ce	0.6370362
213	0xbcfd861c	-0.030947737
214	0xbe8865af	-0.26640078
215	0xbf471d1d	-0.777788
216	0xbea47813	-0.3212286
217	0xbe745887	-0.23861896
218	0x3eedc255	0.46437326
219	0x3e872015	0.26391664
220	0xbe86194f	-0.26191184
221	0x3dd4000b	0.10351571
222	0xbe91c096	-0.28467244
223	0x3e8d3967	0.27582857
224	0x3e94f04d	0.29089585
225	0xbf05dbda	-0.5228859
226	0x3f56d622	0.8392049
227	0xbdf2d729	-0.11857445
228	0xbf626dfb	-0.88449067
229	0xbefdf5ac	-0.49601495
230	0xbddf2e76	-0.108975336
231	0xbe700e7c	-0.23443025
232	0x3fac9f7b	1.348617
233	0x3ed5967d	0.41716376
234	0xbeced941	-0.40400127
235	0xbd9d3792	-0.07676615
236	0xbd99430c	-0.07483491
237	0xbe515765	-0.20443495
238	0x3ee716a7	0.4513447
239	0x3eb96f75	0.36217847
240	0xbf8f192f	-1.117956
241	0xbe5c0a7f	-0.21488379
242	0x3e096813	0.13418607
243	0xbed1c4a0	-0.40970325
244	0xbf65f589	-0.8982778
245	0xbe94dadd	-0.2907323
246	0x3e1c7e0b	0.15282457
247	0x3f0af74a	0.54283583
248	0xbf5b2cee	-0.8561543
249	0x3fae51e3	1.361874
250	0x3e5b9c79	0.21446408
251	0xbec4a4a5	-0.38406864
252	0x3e4442e8	0.19166148
253	0xbf3e3fd9	-0.74316174
254	0x3efc5de7	0.49290392
255	0xbd6e76ba	-0.058218695

onnx::GRU_110 f4 [1, 168]
0	0x3eaa087a	0.33209592
1	0x3eae9b23	0.34102735
2	0xbebec372	-0.37258488
3	0x3eb62c1a	0.35580522
4	0x3e92784b	0.286074
5	0x3f27c9d6	0.6554235
6	0x3ea7b9ad	0.32758847
7	0x3f207701	0.62681586
8	0xbe7d5d9d	-0.24742742
9	0x3ea54156	0.3227641
10	0x3e2b5a45	0.16733654
11	0x3ec75f3f	0.38939855
12	0xbe26e7e3	-0.16299395
13	0x3d86847d	0.06568239
14	0x3d12fc70	0.035885274
15	0x3df97827	0.1218112
16	0x3da90646	0.0825315
17	0xbd976b8c	-0.0739356
18	0x3ed719f5	0.4201199
19	0xbe6516de	-0.22372004
20	0x3e219200	0.15778351
21	0x3e10fa0d	0.14157887
22	0x3eb4c2c1	0.35304835
23	0x3e900b98	0.28133845
24	0xbe4ed000	-0.20196533
25	0xbcce25a3	-0.025164431
26	0xbdfecfcc	-0.12441978
27	0xbdd75433	-0.105141066
28	0xbeccd024	-0.4000255
29	0x3e171abb	0.1475629
30	0xbd967291	-0.073460706
31	0xbeedf3c4	-0.4647504
32	0xbdcb4672	-0.09925546
33	0x3e37d63a	0.17952815
34	0xbea71bbc	-0.32638347
35	0x3dabd932	0.08391036
36	0x3dfdcac2	0.123921886
37	0xbe5caab2	-0.2154949
38	0x3e5aaf63	0.21355967
39	0xbdb519d0	-0.08842814
40	0xbe81230a	-0.25222045
41	0x3de470b5	0.1115431
42	0xbf00c96b	-0.5030734
43	0xbe8c1581	-0.27360156
44	0xbecbbabb	-0.39790902
45	0x3ddd2244	0.10797551
46	0xbed2dd0f	-0.4118428
47	0xbbe280f9	-0.0069123474
48	0xbeb1ceb9	-0.3472803
49	0xbf0a17a1	-0.53942305
50	0xbd0cc995	-0.03437193
51	0x3e9ee8e3	0.31037053
52	0x3c7b6b7f	0.015345453
53	0xbea267c8	-0.31719804
54	0xbdcc5eb7	-0.09979003
55	0xbe051a01	-0.12998201
56	0xbdbcc667	-0.0921753
57	0x3e47f84a	0.19528309
58	0x3e4e847d	0.20167728
59	0xbd8aa113	-0.06769004
60	0x3d156041	0.036468748
61	0xbf005860	-0.5013485
62	0x3dfa154f	0.122110955
63	0x3e946cfc	0.28989398
64	0x3e4e4d4f	0.20146678
65	0xbe372061	-0.17883445
66	0x3d1c5daf	0.03817528
67	0xbe1154c4	-0.14192492
68	0x3df44e68	0.11929017
69	0x3d52e54a	0.0514882
70	0x3e815356	0.25258893
71	0x3ee18703	0.44048318
72	0x3d055976	0.03255602
73	0xbd1fc87e	-0.039009564
74	0x3e4fe17c	0.20300859
75	0xbd305411	-0.043048922
76	0xbdcd55f3	-0.10026159
77	0x3d98c5dd	0.074596144
78	0xbec790df	-0.38977715
79	0x3d63bc23	0.055599343
80	0x3d8fb730	0.07017362
81	0xbe12ea74	-0.1434725
82	0x3df9297c	0.12166116
83	0xbe38758e	-0.18013594
84	0x3e721482	0.23640636
85	0x3da8392c	0.0821403
86	0xbeb7d4ef	-0.35904643
87	0x3e8611f4	0.26185572
88	0x3e6261db	0.22107641
89	0x3f11bbdd	0.5692728
90	0x3ed4d33b	0.41567406
91	0x3f1a008c	0.60157084
92	0x3dcc6594	0.09980312
93	0x3d23e4d1	0.04001314
94	0x3e81ee6a	0.25377208
95	0x3e9f62c1	0.3113003
96	0x3e163b2d	0.14671011
97	0x3ecaf23f	0.39637944
98	0x3eb39709	0.35076168
99	0x3d902645	0.07038549
100	0x3eacccc6	0.3374998
101	0x3ddf73d2	0.10910763
102	0x3ef79d7c	0.4836234
103	0xbdfa9fa9	-0.12237484
104	0x3d9a1352	0.07523216
105	0x3c0ba10a	0.008522281
106	0x3ecd0f93	0.40050945
107	0x3d9171ba	0.0710177
108	0xbdeb2bab	-0.114829384
109	0xbc1409e1	-0.009035558
110	0xbda31464	-0.079628736
111	0x3c928553	0.01788584
112	0xbebcfc57	-0.3691127
113	0x3d8d6586	0.0690413
114	0xbbaf2143	-0.0053445413
115	0xbdeb1fe4	-0.11480692
116	0xbe65f867	-0.22458039
117	0xbd1d9504	-0.03847219
118	0xbe67371f	-0.22579621
119	0x3e93ae98	0.28844142
120	0x3e2c2a3f	0.1681299
121	0xbe9c2e32	-0.30503994
122	0x3e48501d	0.19561811
123	0xbc17226c	-0.009224515
124	0xbe32bd49	-0.17455019
125	0xbdb96a54	-0.090534836
126	0xbf028def	-0.50997823
127	0xbeeaf189	-0.45887402
128	0xbe481e80	-0.19542885
129	0x3e1c5514	0.1526683
130	0xbe8f5590	-0.27994967
131	0xbe093d6f	-0.13402341
132	0xbe87fd13	-0.26560268
133	0xbe9d2061	-0.30688766
134	0x3d3701b9	0.044679377
135	0x3dba082a	0.090835884
136	0xbd534b75	-0.051585633
137	0xbec0bd52	-0.3764444
138	0xbd99651b	-0.074899875
139	0xbe322902	-0.17398456
140	0x3d7c481a	0.0615922
141	0x3e73f726	0.23824748
142	0xbd73f0d6	-0.05955585
143	0x3eb1c223	0.34718427
144	0x3d1f9433	0.038959693
145	0xbeb910b8	-0.36145568
146	0xbe6632f8	-0.2248038
147	0x3e1432c6	0.14472494
148	0x3e83f435	0.25772253
149	0x3e476d3e	0.19475266
150	0xbec955ea	-0.3932336
151	0x3cca0293	0.02465943
152	0xbdfb6ad3	-0.122762345
153	0x3e05273b	0.13003246
154	0xbc10da55	-0.008841117
155	0x3bb0a0cb	0.0053902618
156	0x3e815cd1	0.25266126
157	0x3e4ac328	0.19801009
158	0xbe37d741	-0.17953207
159	0xbc8b4f61	-0.017005624
160	0x3c965a5b	0.018353632
161	0xbcefc310	-0.029267818
162	0xbe05edb8	-0.13078964
163	0x3e7023a1	0.23451091
164	0xbdfd2197	-0.123599224
165	0x3df25e8a	0.11834438
166	0xbe37fbcd	-0.17967148
167	0x3dc7d069	0.09756548
