examples/nn/gru/saved/mnist_gruNN_028h_01l.pt (torch, 52387 bytes, 6 tensors)

gru.weight_ih_l0 f4 [84, 28]
0	0xbe4a8b40	-0.19779682
1	0xbd85f921	-0.06541658
2	0xbe0c7217	-0.13715397
3	0x3d1d5b41	0.038417105
4	0x3f024a46	0.5089458
5	0x3f22c911	0.63588053
6	0x3f1b5af6	0.6068567
7	0x3f1b3891	0.6063319
8	0x3e0ae60b	0.13564317
9	0xbdfc779c	-0.12327501
10	0x3d41835d	0.04724442
11	0xbe44dd2b	-0.19224994
12	0xbe865d75	-0.26243177
13	0xbecabb49	-0.39596012
14	0xbdc4bcf2	-0.09606351
15	0xbea1ad55	-0.31577554
16	0xbe6f7799	-0.23385467
17	0xbe10bf82	-0.14135554
18	0xbc90008a	-0.017578382
19	0x3e6fd6af	0.23421739
20	0x3dc56e32	0.09640159
21	0x3d95214e	0.07281743
22	0x3ed59906	0.4171831
23	0x3e7513a3	0.23933272
24	0x3e8b6a35	0.27229467
25	0x3ee0a78c	0.43877828
26	0xbec4c3e0	-0.3843069
27	0x3e814ca8	0.25253797
28	0xbf059dc4	-0.52193856
29	0xbcd3f38f	-0.025872974
30	0xbdabbb64	-0.08385351
31	0x3d6fce98	0.058546633
32	0x3ecd0fbe	0.40051073
33	0x3c8872e8	0.016656354
34	0xbd8a4b1b	-0.067526065
35	0x3e35d990	0.17758775
36	0x3d79f54f	0.06102496
37	0x3de9615b	0.11395522
38	0xbd7458e1	-0.059655074
39	0x3e1da5b9	0.1539525
40	0xbe640786	-0.22268495
41	0xbf05c9a4	-0.52260804
42	0xbf55ffc5	-0.835934
43	0xbf21b65f	-0.631689
44	0xbee25c45	-0.4421102
45	0x3de4f596	0.11179654
46	0x3cc659a4	0.024212666
47	0x3b586f6b	0.0033025395
48	0x3eceb05b	0.40368924
49	0xbdbb6d05	-0.09151653
50	0xbe89c36b	-0.26906905
51	0xbea06e2e	-0.3133406
52	0x3c90511d	0.017616803
53	0xbef3abd8	-0.47592044
54	0xbebec9f8	-0.37263465
55	0x3d6fb656	0.0585235
56	0x3e6305d8	0.22170198
57	0x3e177c55	0.14793523
58	0xbe53c742	-0.2068148
59	0xbe2c7614	-0.16841918
60	0xbf1a29ff	-0.6022033
61	0xbe9a3c4b	-0.30124125
62	0xbea3ced8	-0.31993747
63	0xbf0cec27	-0.5504784
64	0xbee626fc	-0.44951618
65	0xbebcc247	-0.36866972
66	0xbdf984a7	-0.121835046
67	0xbed2a289	-0.4113963
68	0xbcccccb0	-0.024999946
69	0x3ef1c235	0.4721848
70	0x3f5fc5bd	0.874111
71	0x3fb58d8e	1.4183824
72	0x3f6a4c24	0.9152243
73	0x3f845d08	1.0340891
74	0x3f928b77	1.1448811
75	0x3e5166e4	0.20449406
76	0x3e09ab0a	0.13444152
77	0xbdcdafd5	-0.10043303
78	0xbeac593a	-0.33661824
79	0x3dbd1d40	0.092340946
80	0x3ec9cf28	0.3941586
81	0xbe050182	-0.12988856
82	0xbf097f5b	-0.53709954
83	0xbf062b97	-0.5241026
84	0xbea61e31	-0.3244491
85	0x3e8b94fe	0.2726211
86	0x3dc9d0ee	0.09854303
87	0xbe50c8f6	-0.2038916
88	0x3e197e6c	0.14989632
89	0x3ecc0c53	0.39853153
90	0x3ee70456	0.45120496
91	0xbd130759	-0.03589568
92	0xbf09ecca	-0.53876936
93	0xbf590dc6	-0.8478664
94	0xbf3b730a	-0.7322241
95	0x3d0b87f3	0.0340652
96	0x3e2fc61c	0.17165416
97	0x3dfff763	0.12498357
98	0xbecad2e0	-0.3961401
99	0xbed22bbc	-0.41048992
100	0xbf15b2c6	-0.5847591
101	0xbd46b886	-0.04851582
102	0xbba766de	-0.0051086983
103	0x3e41888f	0.18899749
104	0x3ebe91f5	0.3722073
105	0x3f5004e8	0.81257486
106	0x3fa0a4ad	1.2550255
107	0x3fa17a41	1.2615434
108	0x3f7f6bde	0.9977397
109	0x3f2bce80	0.6711197
110	0x3ee3bf40	0.4448185
111	0x3dd091d4	0.101840645
112	0x3e88f8cb	0.26752314
113	0xbbe1785f	-0.0068808044
114	0xbedd7a41	-0.43257335
115	0xbed9cebf	-0.42540547
116	0xbf0743be	-0.5283774
117	0xbf59678b	-0.8492362
118	0xbe15febb	-0.14647953
119	0xbd80b2e3	-0.0628412
120	0xbdce682d	-0.10078464
121	0x3e3fa644	0.18715769
122	0x3e18cdc4	0.14922243
123	0x3e3cf0ef	0.18451284
124	0x3e2c02ee	0.16797993
125	0xbce6e71b	-0.028186372
126	0xbe9a014c	-0.30079114
127	0xbe9e3a6c	-0.30903947
128	0xbf1d9f5e	-0.615713
129	0xbe97865a	-0.2959469
130	0xbe842b3d	-0.25814238
131	0xbe13423d	-0.14380737
132	0x3e218fac	0.15777463
133	0x3ed77acd	0.42085877
134	0x3ead9741	0.3390446
135	0x3d453774	0.048148587
136	0x3ec977c2	0.3934918
137	0x3dd7d046	0.10537772
138	0xbc2ee240	-0.010674059
139	0xbca9aad2	-0.020711336
140	0xbe8cd6c4	-0.27507603
141	0x3e2ccaea	0.1687428
142	0x3db78f54	0.089628845
143	0xbe6c541a	-0.23078957
144	0xbe90594b	-0.28193125
145	0xbeb01b57	-0.3439586
146	0xbe9a502f	-0.301393
147	0xbe6ee88e	-0.233309
148	0xbf2b7bab	-0.6698558
149	0xbeab258a	-0.33427078
150	0xbe4e92bf	-0.20173167
151	0xbe683ae6	-0.22678718
152	0xbe35fb06	-0.17771539
153	0xbda675a1	-0.08127905
154	0x3e1b9666	0.15194091
155	0x3b73aa98	0.003718054
156	0xbe256811	-0.1615298
157	0xbddef175	-0.10885898
158	0xbc6deb75	-0.014521469
159	0x3e43e2ee	0.19129536
160	0x3c730620	0.014833003
161	0x3d11a18b	0.03555445
162	0x3cfc86e2	0.030826036
163	0x3e8ff8f4	0.28119624
164	0x3ec239f9	0.37934855
165	0xbe4c5a0d	-0.19956227
166	0xbe803516	-0.250405
167	0x3cd651fc	0.02616214
168	0x3d4d15f2	0.050069757
169	0x3e07c5f7	0.13259111
170	0x3f13a4a2	0.57673085
171	0xbe26a0f4	-0.16272336
172	0x3ed09cc6	0.4074461
173	0x3e07d33f	0.13264178
174	0x3e8f23d1	0.27957013
175	0x3ea5aff7	0.32360813
176	0x3eb6cb78	0.3570211
177	0x3ea976ec	0.33098543
178	0x3d8e5102	0.06949045
179	0xbed4fb92	-0.41598183
180	0xbfc47024	-1.5346723
181	0xbfcbdb43	-1.5926288
182	0xbf9406bd	-1.1564556
183	0xbf26af8e	-0.65111625
184	0x3dab900e	0.083770856
185	0x3e8715cb	0.26383814
186	0xbd988cdf	-0.07448744
187	0xbe282fbe	-0.16424462
188	0x3d56adcd	0.052411843
189	0xbd92caa7	-0.07167559
190	0x3efc35bc	0.49259746
191	0x3f0e262b	0.5552699
192	0x3f394060	0.72363853
193	0x3e54395f	0.2072501
194	0x3f0d302b	0.55151623
195	0x3f23433a	0.63774455
196	0xbd9883ae	-0.07446991
197	0xbf56e125	-0.83937293
198	0xbed57ef8	-0.41698432
199	0xbe9d7e3e	-0.30760378
200	0x3dd80ced	0.105493404
201	0xbd8ba095	-0.06817738
202	0xbe435783	-0.19076352
203	0xbe67a450	-0.22621274
204	0xbed41ca2	-0.41428095
205	0xbed8e3c0	-0.4236126
206	0xbda14dd3	-0.07876172
207	0xbe2200f2	-0.15820673
208	0xbde1af11	-0.110197194
209	0xbe86f1a7	-0.2635624
210	0x3d34583b	0.044029456
211	0x3deb15e3	0.11478784
212	0xbe6e6904	-0.23282248
213	0xbe2688d2	-0.1626313
214	0x3e30039f	0.17188881
215	0x3e65817a	0.22412673
216	0x3e0334a5	0.12813051
217	0x3e55bfcc	0.20873946
218	0x3e102256	0.14075598
219	0x3efbf724	0.4921199
220	0x3ebf4818	0.3735969
221	0x3ea56bb4	0.32308733
222	0xbf0d6e8f	-0.55246824
223	0x3d28f9c3	0.041253816
224	0xbea1e886	-0.31622714
225	0x3d77ff3c	0.060546145
226	0x3ecb7930	0.39740896
227	0x3e8a52aa	0.27016193
228	0xbec36605	-0.38163772
229	0xbebeb9fb	-0.37251267
230	0xbeb5b735	-0.35491338
231	0x3b864923	0.004098074
232	0xbdcffa6d	-0.10155187
233	0xbd3c3fba	-0.045959212
234	0x3e6b1850	0.22958493
235	0x3e569e85	0.20958908
236	0x3ede0e71	0.43370393
237	0x3e65f83f	0.2245798
238	0xbc426242	-0.011864247
239	0xbf33c11e	-0.7021655
240	0xbf48ccc8	-0.7843747
241	0xbf18e1ec	-0.5971973
242	0xbe0cda06	-0.13755044
243	0x3e6a09db	0.22855322
244	0x3d9ed7df	0.07756018
245	0x3b2c4d35	0.0026291136
246	0x3d09174c	0.033469483
247	0xbdcc1c9a	-0.09966393
248	0xbe91faf6	-0.2851178
249	0xbedba02f	-0.42895648
250	0xbf0715f4	-0.5276787
251	0xbe3ff581	-0.18745996
252	0x3eabb5ab	0.3353704
253	0xbcaddda8	-0.021223858
254	0xbf1dfaec	-0.61711
255	0xbf66c87c	-0.90149665

gru.weight_hh_l0 f4 [84, 28]
0	0x3e8de998	0.2771728
1	0x3f2deab8	0.6793628
2	0xbf692faa	-0.91088355
3	0xb990f611	-0.00027649154
4	0x3f287157	0.6579794
5	0x3e679423	0.22615103
6	0xbf0e9306	-0.5569309
7	0x3e8998c0	0.26874352
8	0xbee3178f	-0.4435391
9	0xbefb8879	-0.49127558
10	0xbe231b4f	-0.15928386
11	0xbf3bc9c5	-0.7335475
12	0x3ee1be86	0.4409067
13	0x3ed5ea5a	0.4178036
14	0x3d45c199	0.048280332
15	0x3d379105	0.044816036
16	0x3cc83f8c	0.024444364
17	0xbdf64441	-0.12024737
18	0xbe1366d3	-0.14394693
19	0xbb808d98	-0.0039231293
20	0x3d8d3e4f	0.0689665
21	0x3e0d0823	0.13772635
22	0xbe17bfc8	-0.14819252
23	0x3d279f4a	0.040923394
24	0x3e96166a	0.29313976
25	0xbe85a74a	-0.26104194
26	0xbde11b83	-0.109915756
27	0xbe47193a	-0.19443217
28	0x3eb87b98	0.36031795
29	0xbe1b34f1	-0.15156914
30	0x3deef5be	0.11667965
31	0x3c244670	0.010026559
32	0xbc96769c	-0.018367104
33	0x3edab95b	0.4271954
34	0xbeadc002	-0.33935553
35	0xbed6153d	-0.4181308
36	0x3e8e226d	0.2776064
37	0x3e23eb23	0.16007666
38	0x3f0f1e41	0.5590554
39	0xbe8a595f	-0.2702131
40	0x3eb29d57	0.34885666
41	0x3df8889f	0.121354334
42	0xbe9e79a6	-0.30952185
43	0xbef01ba5	-0.4689609
44	0x3edf96eb	0.4366983
45	0xbe997aa9	-0.29976395
46	0xbe07f0b0	-0.13275409
47	0xbeea1657	-0.4572017
48	0xbeba7c91	-0.36423162
49	0xbec13fbb	-0.37743935
50	0xbdabf3ec	-0.08396134
51	0xbe45865e	-0.19289538
52	0xbd920814	-0.07130447
53	0xbe9a1e50	-0.30101252
54	0xbeeb37aa	-0.45940906
55	0xbeacf7f3	-0.3378292
56	0x3dcd85cd	0.10035286
57	0xbd4303fc	-0.04761122
58	0xbeca8864	-0.39557183
59	0xbe6ec64a	-0.23317829
60	0x3f68b981	0.90908056
61	0x3f2b0cc7	0.6681637
62	0x3f05f550	0.5232744
63	0xbf042a5c	-0.51627135
64	0xbf42eae9	-0.76139694
65	0x3bed0875	0.007233674
66	0x3c1874f1	0.009305225
67	0xbe058514	-0.13039047
68	0xbe47aa8c	-0.19498652
69	0x3e0e7ab1	0.1391399
70	0xbf2ab9a1	-0.666895
71	0xbf86a92f	-1.0520381
72	0x3ec913c8	0.39272904
73	0x3f188300	0.5957489
74	0xbf05f765	-0.5233062
75	0x3eadd6b4	0.33952868
76	0x3eace304	0.3376695
77	0x3e86a064	0.26294243
78	0x3e799e29	0.2437674
79	0x3ea92e5b	0.3304318
80	0x3ec643f7	0.38723728
81	0xbe0b655d	-0.13612886
82	0xbea82f5a	-0.32848626
83	0x3ed7cd8b	0.42149004
84	0xbe1abb1e	-0.15110442
85	0xbeb1a6d5	-0.34697595
86	0xbe619717	-0.22030292
87	0x3f046452	0.51715577
88	0xbe55319b	-0.20819704
89	0x3f015551	0.5052081
90	0x3f2c325a	0.6726433
91	0xbe39349b	-0.18086474
92	0xbf1a71e4	-0.60330033
93	0x3d85818b	0.06518849
94	0x3dacdef2	0.08440961
95	0x3e829175	0.255016
96	0xbf0606e2	-0.5235425
97	0x3e2c691a	0.16836968
98	0x3e8ee68b	0.27910265
99	0xbefc09fc	-0.49226367
100	0xbea838f5	-0.32855955
101	0xbf05a80e	-0.52209556
102	0x3e4d3cef	0.20042776
103	0xbe83d46a	-0.25747997
104	0x3f6935aa	0.9109751
105	0xbe72dc61	-0.2371688
106	0x3eafdb38	0.34346938
107	0xbdad8866	-0.084732816
108	0xbc3547cd	-0.011064482
109	0x3c5f8a5f	0.01364383
110	0xbe164cb7	-0.14677702
111	0x3f265934	0.64979863
112	0x3edd94f1	0.43277696
113	0xbed9e1ed	-0.4255518
114	0x3ed8e9c9	0.42365864
115	0xbe1982f5	-0.14991362
116	0xbe33c2c4	-0.17554766
117	0xbf08ef83	-0.53490466
118	0xbdfb73ac	-0.12277922
119	0x3e53aaa7	0.20670567
120	0xbd9fd942	-0.078051105
121	0xbeedb62b	-0.46428046
122	0xbe2cf8a7	-0.16891728
123	0x3f960f18	1.1723356
124	0x3e1f85fe	0.15578458
125	0xbe3fbae7	-0.18723641
126	0x3deb1940	0.114794254
127	0x3d60c1d9	0.054872368
128	0xbe8f0de0	-0.27940273
129	0xbf06735e	-0.52519786
130	0x3ed4a586	0.41532534
131	0x3e3a3655	0.18184789
132	0xbe27ba32	-0.16379622
133	0x3db445b5	0.08802358
134	0x3eb5a31c	0.35476005
135	0xbe910572	-0.28324467
136	0xbd3c2a9f	-0.045939084
137	0x3dfcfe69	0.123532124
138	0x3ee47aba	0.44624883
139	0x3e931124	0.28724015
140	0xbe0c549e	-0.13704154
141	0x3f077228	0.52908564
142	0xbf124a6b	-0.571448
143	0xbd724e45	-0.059156675
144	0x3eeac7b9	0.458555
145	0xbe30c5eb	-0.17263
146	0x3f00acdf	0.5026378
147	0xbe4a4c14	-0.19755584
148	0x3bd1120a	0.0063803243
149	0x3ed4d95f	0.4157209
150	0xbf98dee6	-1.1943023
151	0x3f0ca4a4	0.5493872
152	0xbe4d92da	-0.2007555
153	0x3ddc208a	0.10748394
154	0xbf07aec5	-0.5300105
155	0xbd576914	-0.052590445
156	0x3de37284	0.111058265
157	0xbd7fbb79	-0.062434647
158	0xbf106575	-0.5640481
159	0xbd4bc681	-0.049749855
160	0xbd10979c	-0.035300836
161	0xbed38789	-0.41314343
162	0x3de170d3	0.11007848
163	0x3e88aecb	0.26695856
164	0x3ec1d49e	0.37857527
165	0xbeae8bc0	-0.34090996
166	0xbe2ac180	-0.16675377
167	0x3f5a1f26	0.8520378
168	0x3e5ed582	0.21761134
169	0xbdae958b	-0.08524617
170	0xbe9e8e72	-0.30968052
171	0xbe09a8a5	-0.13443239
172	0xbedfe38b	-0.4372829
173	0xbc1a7b47	-0.009428806
174	0xbe89be22	-0.26902872
175	0x3f360e63	0.711157
176	0xbe058c7d	-0.13041873
177	0x3e84ee85	0.25963226
178	0x3f8c7148	1.0972071
179	0xbe7bc37c	-0.2458629
180	0xbebc00c8	-0.36719346
181	0xbe028191	-0.12744738
182	0xbacb9dbb	-0.0015534678
183	0xbefdb972	-0.49555546
184	0xbedb7361	-0.42861465
185	0x3de27f69	0.11059458
186	0x3eeb2ae6	0.45931166
187	0xbe935e36	-0.28782815
188	0x3db13725	0.08653096
189	0xbf230636	-0.6368135
190	0xbd3162b1	-0.04330701
191	0xbd80b7ed	-0.06285081
192	0xbe3c6c9a	-0.18400803
193	0x3e410970	0.18851256
194	0xbec3a06b	-0.38208327
195	0xbeab53ed	-0.33462468
196	0x3ee2637e	0.44216532
197	0xbe8ad8c4	-0.27118504
198	0x3ea37f03	0.3193284
199	0x3bea2ca4	0.007146435
200	0xbebb0701	-0.3652878
201	0xbed5474f	-0.41655967
202	0x3e6fb708	0.23409665
203	0x3e70d511	0.23518778
204	0x3cbb9ef3	0.022902941
205	0x3d93ef31	0.072233565
206	0x3cc6d362	0.024270717
207	0x3f568cbe	0.83808506
208	0xbe75b43e	-0.23994538
209	0xbd819af4	-0.06328383
210	0xbe467d21	-0.1938367
211	0x3def5ff1	0.11688221
212	0xbe8d2672	-0.27568394
213	0x3f0211d2	0.5080844
214	0xbdb73e53	-0.08947434
215	0x3da1dff7	0.07904046
216	0x3e98f5c9	0.2987502
217	0xbec5e048	-0.38647676
218	0xbdecbbd2	-0.115592614
219	0x3d4169e5	0.04722013
220	0xbde5110a	-0.111848906
221	0x3ec6a3de	0.38796896
222	0xbefab49f	-0.48965928
223	0x3db56bd4	0.08858457
224	0x3eaad95a	0.3336895
225	0x3dcfb755	0.1014239
226	0x3f04c0d9	0.5185676
227	0xbda35976	-0.07976048
228	0x3e8d17f9	0.27557352
229	0xbea91eb7	-0.33031246
230	0xbe2c6c24	-0.16838127
231	0x3e65602b	0.22399966
232	0xbecef92d	-0.4042448
233	0xbf3576c2	-0.70884335
234	0x3eb9073f	0.3613834
235	0x3ea756b5	0.3268334
236	0x3d205972	0.0391478
237	0xbeda88de	-0.42682546
238	0xbe594137	-0.21216284
239	0x3e404d94	0.18779594
240	0x3e599c16	0.21250948
241	0xbdb5aee0	-0.088712454
242	0xbd8492ef	-0.06473338
243	0xbdd60f33	-0.10452118
244	0x3ee0adad	0.43882504
245	0xbe6fe5de	-0.23427531
246	0xbdac8899	-0.084244914
247	0xbe8a7ba5	-0.27047458
248	0x3e8b5ceb	0.27219328
249	0xbf167cae	-0.58783996
250	0xbdd19cc8	-0.10234982
251	0x3ebb5958	0.365916
252	0xbd45e0f1	-0.048310224
253	0xbe46d7a5	-0.194182
254	0xbe1ae3be	-0.15125939
255	0xbec482ad	-0.38380948

gru.bias_ih_l0 f4 [84]
0	0xbeccd024	-0.4000255
1	0x3e171abb	0.1475629
2	0xbd967291	-0.073460706
3	0xbeedf3c4	-0.4647504
4	0xbdcb4672	-0.09925546
5	0x3e37d63a	0.17952815
6	0xbea71bbc	-0.32638347
7	0x3dabd932	0.08391036
8	0x3dfdcac2	0.123921886
9	0xbe5caab2	-0.2154949
10	0x3e5aaf63	0.21355967
11	0xbdb519d0	-0.08842814
12	0xbe81230a	-0.25222045
13	0x3de470b5	0.1115431
14	0xbf00c96b	-0.5030734
15	0xbe8c1581	-0.27360156
16	0xbecbbabb	-0.39790902
17	0x3ddd2244	0.10797551
18	0xbed2dd0f	-0.4118428
19	0xbbe280f9	-0.0069123474
20	0xbeb1ceb9	-0.3472803
21	0xbf0a17a1	-0.53942305
22	0xbd0cc995	-0.03437193
23	0x3e9ee8e3	0.31037053
24	0x3c7b6b7f	0.015345453
25	0xbea267c8	-0.31719804
26	0xbdcc5eb7	-0.09979003
27	0xbe051a01	-0.12998201
28	0x3eaa087a	0.33209592
29	0x3eae9b23	0.34102735
30	0xbebec372	-0.37258488
31	0x3eb62c1a	0.35580522
32	0x3e92784b	0.286074
33	0x3f27c9d6	0.6554235
34	0x3ea7b9ad	0.32758847
35	0x3f207701	0.62681586
36	0xbe7d5d9d	-0.24742742
37	0x3ea54156	0.3227641
38	0x3e2b5a45	0.16733654
39	0x3ec75f3f	0.38939855
40	0xbe26e7e3	-0.16299395
41	0x3d86847d	0.06568239
42	0x3d12fc70	0.035885274
43	0x3df97827	0.1218112
44	0x3da90646	0.0825315
45	0xbd976b8c	-0.0739356
46	0x3ed719f5	0.4201199
47	0xbe6516de	-0.22372004
48	0x3e219200	0.15778351
49	0x3e10fa0d	0.14157887
50	0x3eb4c2c1	0.35304835
51	0x3e900b98	0.28133845
52	0xbe4ed000	-0.20196533
53	0xbcce25a3	-0.025164431
54	0xbdfecfcc	-0.12441978
55	0xbdd75433	-0.105141066
56	0xbdbcc667	-0.0921753
57	0x3e47f84a	0.19528309
58	0x3e4e847d	0.20167728
59	0xbd8aa113	-0.06769004
60	0x3d156041	0.036468748
61	0xbf005860	-0.5013485
62	0x3dfa154f	0.122110955
63	0x3e946cfc	0.28989398
64	0x3e4e4d4f	0.20146678
65	0xbe372061	-0.17883445
66	0x3d1c5daf	0.03817528
67	0xbe1154c4	-0.14192492
68	0x3df44e68	0.11929017
69	0x3d52e54a	0.0514882
70	0x3e815356	0.25258893
71	0x3ee18703	0.44048318
72	0x3d055976	0.03255602
73	0xbd1fc87e	-0.039009564
74	0x3e4fe17c	0.20300859
75	0xbd305411	-0.043048922
76	0xbdcd55f3	-0.10026159
77	0x3d98c5dd	0.074596144
78	0xbec790df	-0.38977715
79	0x3d63bc23	0.055599343
80	0x3d8fb730	0.07017362
81	0xbe12ea74	-0.1434725
82	0x3df9297c	0.12166116
83	0xbe38758e	-0.18013594

gru.bias_hh_l0 f4 [84]
0	0xbebcfc57	-0.3691127
1	0x3d8d6586	0.0690413
2	0xbbaf2143	-0.0053445413
3	0xbdeb1fe4	-0.11480692
4	0xbe65f867	-0.22458039
5	0xbd1d9504	-0.03847219
6	0xbe67371f	-0.22579621
7	0x3e93ae98	0.28844142
8	0x3e2c2a3f	0.1681299
9	0xbe9c2e32	-0.30503994
10	0x3e48501d	0.19561811
11	0xbc17226c	-0.009224515
12	0xbe32bd49	-0.17455019
13	0xbdb96a54	-0.090534836
14	0xbf028def	-0.50997823
15	0xbeeaf189	-0.45887402
16	0xbe481e80	-0.19542885
17	0x3e1c5514	0.1526683
18	0xbe8f5590	-0.27994967
19	0xbe093d6f	-0.13402341
20	0xbe87fd13	-0.26560268
21	0xbe9d2061	-0.30688766
22	0x3d3701b9	0.044679377
23	0x3dba082a	0.090835884
24	0xbd534b75	-0.051585633
25	0xbec0bd52	-0.3764444
26	0xbd99651b	-0.074899875
27	0xbe322902	-0.17398456
28	0x3e721482	0.23640636
29	0x3da8392c	0.0821403
30	0xbeb7d4ef	-0.35904643
31	0x3e8611f4	0.26185572
32	0x3e6261db	0.22107641
33	0x3f11bbdd	0.5692728
34	0x3ed4d33b	0.41567406
35	0x3f1a008c	0.60157084
36	0x3dcc6594	0.09980312
37	0x3d23e4d1	0.04001314
38	0x3e81ee6a	0.25377208
39	0x3e9f62c1	0.3113003
40	0x3e163b2d	0.14671011
41	0x3ecaf23f	0.39637944
42	0x3eb39709	0.35076168
43	0x3d902645	0.07038549
44	0x3eacccc6	0.3374998
45	0x3ddf73d2	0.10910763
46	0x3ef79d7c	0.4836234
47	0xbdfa9fa9	-0.12237484
48	0x3d9a1352	0.07523216
49	0x3c0ba10a	0.008522281
50	0x3ecd0f93	0.40050945
51	0x3d9171ba	0.0710177
52	0xbdeb2bab	-0.114829384
53	0xbc1409e1	-0.009035558
54	0xbda31464	-0.079628736
55	0x3c928553	0.01788584
56	0x3d7c481a	0.0615922
57	0x3e73f726	0.23824748
58	0xbd73f0d6	-0.05955585
59	0x3eb1c223	0.34718427
60	0x3d1f9433	0.038959693
61	0xbeb910b8	-0.36145568
62	0xbe6632f8	-0.2248038
63	0x3e1432c6	0.14472494
64	0x3e83f435	0.25772253
65	0x3e476d3e	0.19475266
66	0xbec955ea	-0.3932336
67	0x3cca0293	0.02465943
68	0xbdfb6ad3	-0.122762345
69	0x3e05273b	0.13003246
70	0xbc10da55	-0.008841117
71	0x3bb0a0cb	0.0053902618
72	0x3e815cd1	0.25266126
73	0x3e4ac328	0.19801009
74	0xbe37d741	-0.17953207
75	0xbc8b4f61	-0.017005624
76	0x3c965a5b	0.018353632
77	0xbcefc310	-0.029267818
78	0xbe05edb8	-0.13078964
79	0x3e7023a1	0.23451091
80	0xbdfd2197	-0.123599224
81	0x3df25e8a	0.11834438
82	0xbe37fbcd	-0.17967148
83	0x3dc7d069	0.09756548

fc.weight f4 [10, 784]
0	0x3df5c33d	0.12000129
1	0xbe682fae	-0.22674438
2	0xbdbb1a5f	-0.09135889
3	0xbe20b4e0	-0.15693998
4	0xbe0e6962	-0.13907388
5	0x3e408238	0.18799675
6	0xbccd3723	-0.025050705
7	0xbe39a6a4	-0.18129975
8	0xbe82473e	-0.25444978
9	0x3e3e9d5c	0.18614715
10	0x3e14d145	0.14532955
11	0x3e30cc83	0.17265515
12	0xbdd74e9a	-0.10513039
13	0xbe6608ca	-0.2246429
14	0xbe53b296	-0.20673594
15	0xbe679062	-0.22613671
16	0xbe5d86ab	-0.21633403
17	0xbdb6e9f5	-0.089313425
18	0xbe332c55	-0.1749738
19	0x3daefc26	0.08544187
20	0x3e094421	0.13404895
21	0xbd79ca0a	-0.060983695
22	0x3e63b3c1	0.2223654
23	0xbe226394	-0.15858299
24	0x3e605da3	0.2191072
25	0x3e142446	0.14466962
26	0xbdd25c9f	-0.10271572
27	0x3e958d95	0.2920958
28	0x3dc9f347	0.098608546
29	0xbe443a80	-0.19162941
30	0xbe24fa97	-0.16111217
31	0xbe448c35	-0.1919411
32	0x3d932bff	0.07186126
33	0x3e441a29	0.19150604
34	0xbcca8109	-0.024719732
35	0xbe54011a	-0.20703545
36	0xbe86684d	-0.2625145
37	0x3e1d08fb	0.15335457
38	0x3e42ae52	0.1901181
39	0x3e549870	0.20761275
40	0xbcb36a0f	-0.021901159
41	0xbe277849	-0.16354479
42	0xbe7c6b7f	-0.24650382
43	0xbe862836	-0.26202554
44	0xbe57dcc6	-0.21080312
45	0xbdd6cd85	-0.104884185
46	0xbe6a03a0	-0.22852945
47	0x3d8253fa	0.063636735
48	0x3e00ca01	0.12577058
49	0xbd9e58e4	-0.07731798
50	0x3e7bb971	0.24582459
51	0xbe17e465	-0.1483322
52	0x3e91076e	0.2832598
53	0x3dc5a036	0.096496984
54	0xbdbc552d	-0.091959335
55	0x3ea7d82f	0.32782122
56	0x3e0dce85	0.13848312
57	0xbd80274a	-0.06257494
58	0xbde5d570	-0.112223506
59	0xbd92690e	-0.07148944
60	0x3e15cb58	0.1462835
61	0x3e08a22c	0.13343114
62	0xbde82a68	-0.11336213
63	0x3caefa6e	0.021359649
64	0xbd98cc96	-0.07460897
65	0x3e0a2f4a	0.13494602
66	0x3d258ea7	0.040419247
67	0x3e6ec125	0.23315866
68	0x3d911077	0.070832185
69	0xbe2dbcc6	-0.16966543
70	0xbe528fa3	-0.20562606
71	0xbe2bab5f	-0.16764592
72	0x3d2001ac	0.039064094
73	0xbe1e7e28	-0.15477812
74	0xbe70c959	-0.23514308
75	0x3d519e75	0.051176507
76	0x3d331adb	0.043726783
77	0xbd9dc172	-0.077029124
78	0x3e507f30	0.20361018
79	0xbcb83f14	-0.022491015
80	0x3eaecad6	0.34139127
81	0xbdfdf003	-0.12399294
82	0xbbb6c82a	-0.0055780606
83	0x3e749f15	0.2388881
84	0x3e00093c	0.12503523
85	0xbda67da3	-0.08129432
86	0x3da52b06	0.08064847
87	0xbe13d777	-0.14437662
88	0xbe30d54e	-0.1726887
89	0x3e04ccb5	0.12968715
90	0x3e60a516	0.21937975
91	0xbdee7ada	-0.11644526
92	0x3e133c59	0.1437849
93	0x3dcf36a4	0.10117844
94	0xbd8011ef	-0.062534206
95	0x3e65978f	0.22421096
96	0xbe19c298	-0.15015638
97	0xbe1c8906	-0.15286645
98	0xbdbf9a7f	-0.0935564
99	0x3cad8cc8	0.021185294
100	0x3e4065ce	0.18788835
101	0xbd365d11	-0.04452235
102	0x3d95ee60	0.07320857
103	0xbc9f165c	-0.019419841
104	0xbd5be81d	-0.053688157
105	0xbd88a0c8	-0.066712916
106	0x3e33bb09	0.17551817
107	0xbde83670	-0.11338508
108	0x3e24db5f	0.16099308
109	0xbcf2a0d9	-0.029617714
110	0x3e340e35	0.17583545
111	0x3e0a45e9	0.13503231
112	0x3e5802ae	0.21094772
113	0x3d67b029	0.056564484
114	0x3dccf1eb	0.1000708
115	0xbd8abd81	-0.06774426
116	0xbe5db3bd	-0.21650596
117	0x3daecd93	0.08535304
118	0x3c1a69f6	0.009424677
119	0x3e587c0c	0.2114107
120	0x3e704a9a	0.23465958
121	0x3ccbe5f1	0.024889918
122	0x3c6dc8f3	0.014513242
123	0x3e622755	0.22085316
124	0x3d69b92c	0.05706136
125	0x3d8cbf3f	0.06872415
126	0xbde8ebb0	-0.11373079
127	0xbe2c8ccf	-0.16850589
128	0x3d3ffbfa	0.046871163
129	0xbc0fd51e	-0.008778838
130	0xbd2d12fb	-0.04225443
131	0xbbbf41e8	-0.005836714
132	0xbde24cf6	-0.110498354
133	0x3d9751c6	0.07388644
134	0x3daf8c83	0.08571722
135	0x3da21cb5	0.07915632
136	0x3e155132	0.14581755
137	0x3db3ee50	0.08785689
138	0x3e4e57c2	0.20150664
139	0xbe156611	-0.14589716
140	0x3e7c4dc7	0.24639045
141	0x3e093ec3	0.13402848
142	0x3e2f2376	0.17103371
143	0xbda2c6d9	-0.079480834
144	0xbe354bec	-0.17704743
145	0xbd985f3a	-0.07440038
146	0x3dc79df6	0.097469255
147	0x3d0e13d1	0.034686867
148	0x3e415c95	0.18882973
149	0x3d0a5b76	0.03377863
150	0xbe8eb7ac	-0.27874506
151	0x3ddf198b	0.10893544
152	0x3d286a93	0.041117262
153	0xbcda192c	-0.026623331
154	0xbdb8073c	-0.08985755
155	0xbcdf8cc9	-0.027288811
156	0x3c8f5e1d	0.017500931
157	0x3e019c3a	0.12657252
158	0x3c7abfe5	0.01530454
159	0x3cf09a91	0.029370578
160	0x3ca07198	0.019585416
161	0x3dccbc6d	0.09996877
162	0x3cd9e7eb	0.026599845
163	0x3e4e1fb3	0.2012928
164	0x3e3a3354	0.18183643
165	0x3dc6d0e9	0.09707815
166	0x3d9e46e7	0.07728367
167	0xbbd178fd	-0.0063925968
168	0x3e4dbcfe	0.20091626
169	0x3d9a92b2	0.07547511
170	0x3defed8f	0.117152326
171	0x3db9ba74	0.09068766
172	0xbe981699	-0.2970474
173	0xbd6a7628	-0.05724159
174	0x3e095071	0.13409592
175	0x3d3dac57	0.046306934
176	0x3d63ac0d	0.055584002
177	0xbbfbe178	-0.00768679
178	0xbe47452b	-0.19459979
179	0x3eac836f	0.33694026
180	0xbd867d5e	-0.06566881
181	0xbd06adcb	-0.032880586
182	0x3c96ba82	0.01839948
183	0x3e0425ff	0.1290512
184	0xbe122ac2	-0.14274123
185	0x3cca0d4d	0.024664545
186	0x3e1224f6	0.14271912
187	0xbcbd1682	-0.023082022
188	0x3da01428	0.078163445
189	0xbbe86078	-0.007091578
190	0x3dce5eb8	0.1007666
191	0x3df5d152	0.12002815
192	0xbc6fab8f	-0.014628305
193	0x3dce7223	0.100803636
194	0x3e4e750b	0.20161836
195	0x3c91b023	0.017784184
196	0x3da08451	0.07837737
197	0x3ba53f22	0.0050429264
198	0xbd804721	-0.06263567
199	0x3dfb9242	0.12283756
200	0xbe4ba035	-0.19885333
201	0xbd1af35f	-0.037829753
202	0x3d045d9e	0.032315843
203	0x3d6e1592	0.05812604
204	0xbd377d0d	-0.044796992
205	0xbda1eb76	-0.07906239
206	0xbd74703f	-0.05967736
207	0x3d7b5890	0.061363757
208	0xbd02b93e	-0.031914942
209	0x3df6135b	0.120154105
210	0x3d8b5529	0.068033524
211	0x3bd6e1b4	0.0065576676
212	0xbdf43910	-0.11924946
213	0xbdf8ce34	-0.12148705
214	0x3e04ed90	0.12981248
215	0xbd4d4fd9	-0.050124977
216	0xbd9b77fd	-0.07591245
217	0x3e05e0e8	0.13074076
218	0xbdcf8316	-0.101324245
219	0x3bc0e04f	0.0058861147
220	0xbddea93b	-0.10872122
221	0x3e3ae8e1	0.18252899
222	0x3dcda08b	0.10040387
223	0x3cc2f70d	0.023799444
224	0x3e567b22	0.20945409
225	0xbcb12003	-0.02162171
226	0xbe99fe11	-0.3007665
227	0xbc82895a	-0.015934635
228	0x3b0a4f83	0.0021104522
229	0x3e62d541	0.22151662
230	0x3de1e54d	0.11030064
231	0x3d6e3ec8	0.05816534
232	0xbd26ce5a	-0.040724136
233	0xbd1c33c2	-0.038135298
234	0xbdce3efb	-0.10070606
235	0x3d9b2779	0.07575888
236	0xbd1dfea7	-0.038572934
237	0x3c17cea5	0.0092655765
238	0xbc93d81f	-0.01804739
239	0xbe4247c2	-0.18972686
240	0xbe556283	-0.2083836
241	0xbdb1e637	-0.08686488
242	0xbda314b3	-0.079629324
243	0x3d78e2d5	0.0607632
244	0xbdb8248d	-0.089913465
245	0x3d9c7e6a	0.07641299
246	0x3d50ff0c	0.05102448
247	0xbd997ba8	-0.07494289
248	0xbe3eba30	-0.18625712
249	0x3e9bae95	0.30406633
250	0x3c17dea5	0.009269391
251	0x3d83cc89	0.06435496
252	0x3e5ce701	0.21572496
253	0xbd4634c0	-0.04839015
254	0xbe849cc0	-0.2590084
255	0xbe781813	-0.24227934

fc.bias f4 [10]
0	0xbe446e89	-0.19182791
1	0x3c83fb6e	0.016111102
2	0x3e3ec467	0.18629609
3	0x3dd8a94b	0.10579165
4	0xbe327cb4	-0.17430383
5	0x3dcc1d70	0.09966552
6	0xbd906ecf	-0.07052385
7	0x3d2483b6	0.04016467
8	0xbd389689	-0.045065437
9	0xbc9a64a9	-0.018846827
