examples/nn/gru/saved/the_smallest_gru.onnx (onnx, 1176 bytes, 3 tensors)

onnx::GRU_94 f4 [1, 6, 2]
00000000: 5fc2 27bf fb94 1c3f 8029 ed3d b7e1 123f
00000010: 48a3 f1bd daf9 08bf 70f7 28bf 8034 463c
00000020: 0003 333e b614 bcbe 7e7a 04bf 8ed7 85be
-0.6553096 0.61164826 0.11580181 0.57375664 -0.117987216 -0.53506243 -0.6600256 0.012097478
0.17481613 -0.3673455 -0.5174941 -0.26141018

onnx::GRU_95 f4 [1, 6, 2]
00000000: 8081 02bc 367e a13e 5e4a 34bf 6d92 ccbe
00000010: b8ec 19be bfd6 34bf 00a2 8bbc 2072 213e
00000020: 2783 f3be 7a04 7abe 4b6c 143f 10df 35bd
-0.0079654455 0.31541604 -0.70425975 -0.39955464 -0.15031707 -0.70640177 -0.017045021 0.15766191
-0.47561 -0.2441577 0.5797774 -0.044402182

onnx::GRU_96 f4 [1, 12]
00000000: 237b 1f3f c70e a1be de87 ad3e 7dfe 303f
00000010: 485c f53d 9013 853e 5009 4c3e cd93 1dbf
00000020: 34c2 1cbe 9c97 233e 1001 1a3e d000 3dbe
0.62297267 -0.31456587 0.3389272 0.6913832 0.11980492 0.25991488 0.19925427 -0.6155365
-0.15308458 0.15975803 0.15039468 -0.18457341
